…
      "WARNING:tensorflow:From /usr/local/lib/python3.8/dist-packages/keras/layers/normalization/batch_normalization.py:561: _colocate_with (from tensorflow.python.framework.ops) is deprecated and will be removed in a future version.\n",
      "Instructions for updating:\n",
      "Colocations handled automatically by placer.\n"
     ]
    },
    {
     "name": "stdout",
     "output_type": "stream",
     "text": [
      "Model: \"sequential\"\n",
      "_________________________________________________________________\n",
      " Layer (type)                Output Shape              Param #   \n",
      "=================================================================\n",
      " conv2d (Conv2D)             (None, 54, 54, 96)        34944     \n",
      "                                                                 \n",
      " activation (Activation)     (None, 54, 54, 96)        0         \n",
      "                                                                 \n",
      " max_pooling2d (MaxPooling2D  (None, 26, 26, 96)       0         \n",
      " )                                                               \n",
      "                                                                 \n",
      " batch_normalization (BatchN  (None, 26, 26, 96)       384       \n",
      " ormalization)                                                   \n",
      "                                                                 \n",
      " conv2d_1 (Conv2D)           (None, 26, 26, 256)       614656    \n",
      "                                                                 \n",
      " activation_1 (Activation)   (None, 26, 26, 256)       0         \n",
      "                                                                 \n",
      " max_pooling2d_1 (MaxPooling  (None, 12, 12, 256)      0         \n",
      " 2D)                                                             \n",
      "                                                                 \n",
      " batch_normalization_1 (Batc  (None, 12, 12, 256)      1024      \n",
      " hNormalization)                                                 \n",
      "                                                                 \n",
      " conv2d_2 (Conv2D)           (None, 10, 10, 384)       885120    \n",
      "                                                                 \n",
      " activation_2 (Activation)   (None, 10, 10, 384)       0         \n",
      "                                                                 \n",
      " batch_normalization_2 (Batc  (None, 10, 10, 384)      1536      \n",
      " hNormalization)                                                 \n",
      "                                                                 \n",
      " conv2d_3 (Conv2D)           (None, 8, 8, 384)         1327488   \n",
      "                                                                 \n",
      " activation_3 (Activation)   (None, 8, 8, 384)         0         \n",
      "                                                                 \n",
      " batch_normalization_3 (Batc  (None, 8, 8, 384)        1536      \n",
      " hNormalization)                                                 \n",
      "                                                                 \n",
      " conv2d_4 (Conv2D)           (None, 6, 6, 256)         884992    \n",
      "                                                                 \n",
      " activation_4 (Activation)   (None, 6, 6, 256)         0         \n",
      "                                                                 \n",
      " max_pooling2d_2 (MaxPooling  (None, 2, 2, 256)        0         \n",
      " 2D)                                                             \n",
      "                                                                 \n",
      " batch_normalization_4 (Batc  (None, 2, 2, 256)        1024      \n",
      " hNormalization)                                                 \n",
      "                                                                 \n",
      " flatten (Flatten)           (None, 1024)              0         \n",
      "                                                                 \n",
      " dense (Dense)               (None, 4096)              4198400   \n",
      "                                                                 \n",
      " activation_5 (Activation)   (None, 4096)              0         \n",
      "                                                                 \n",
      " dropout (Dropout)           (None, 4096)              0         \n",
      "                                                                 \n",
      " batch_normalization_5 (Batc  (None, 4096)             16384     \n",
      " hNormalization)                                                 \n",
      "                                                                 \n",
      " dense_1 (Dense)             (None, 4096)              16781312  \n",
      "                                                                 \n",
      " activation_6 (Activation)   (None, 4096)              0         \n",
      "                                                                 \n",
      " dropout_1 (Dropout)         (None, 4096)              0         \n",
      "                                                                 \n",
      " batch_normalization_6 (Batc  (None, 4096)             16384     \n",
      " hNormalization)                                                 \n",
      "                                                                 \n",
      " dense_2 (Dense)             (None, 17)                69649     \n",
      "                                                                 \n",
      " activation_7 (Activation)   (None, 17)                0         \n",
      "                                                                 \n",
      "=================================================================\n",
      "Total params: 24,834,833\n",
      "Trainable params: 24,815,697\n",
      "Non-trainable params: 19,136\n",
      "_________________________________________________________________\n"
     ]
    }
   ],
   "source": [
    "# Create a sequential model\n",
…
   "cell_type": "code",
   "execution_count": 21,
   "metadata": {
    "colab": {
     "base_uri": "https://localhost:8080/"
    },
    "id": "BgrMVOWdZ2EA",
    "outputId": "a8256107-82d6-4417-ee3d-1006446d337c"
   },
   "outputs": [
    {
     "name": "stdout",
     "output_type": "stream",
     "text": [
      "Model: \"sequential_1\"\n",
      "_________________________________________________________________\n",
      " Layer (type)                Output Shape              Param #   \n",
      "=================================================================\n",
      " conv2d_5 (Conv2D)           (None, 26, 26, 32)        320       \n",
      "                                                                 \n",
      " max_pooling2d_3 (MaxPooling  (None, 13, 13, 32)       0         \n",
      " 2D)                                                             \n",
      "                                                                 \n",
      " conv2d_6 (Conv2D)           (None, 11, 11, 64)        18496     \n",
      "                                                                 \n",
      " max_pooling2d_4 (MaxPooling  (None, 5, 5, 64)         0         \n",
      " 2D)                                                             \n",
      "                                                                 \n",
      " flatten_1 (Flatten)         (None, 1600)              0         \n",
      "                                                                 \n",
      " dense_3 (Dense)             (None, 128)               204928    \n",
      "                                                                 \n",
      " dropout_2 (Dropout)         (None, 128)               0         \n",
      "                                                                 \n",
      " dense_4 (Dense)             (None, 10)                1290      \n",
      "                                                                 \n",
      "=================================================================\n",
      "Total params: 225,034\n",
      "Trainable params: 225,034\n",
      "Non-trainable params: 0\n",
      "_________________________________________________________________\n"
     ]
    }
   ],
   "source": [
    "model_alex.summary()"
…
